…
160/258 [=================>............] - ETA: 21s
192/258 [=====================>........] - ETA: 14s
224/258 [=========================>....] - ETA: 7s 
256/258 [============================>.] - ETA: 0s
258/258 [==============================] - 55s 214ms/step
[['f1score', 0.8668555240793201], ['precision', 0.8693181818181818], ['recall', 0.864406779661017], ['accuracy', 0.8178294573643411]]
_________________________________________________________________
Layer (type)                 Output Shape              Param #   
=================================================================
embedding_5 (Embedding)      (None, 100454, 300)       11531400  
_________________________________________________________________
conv1d_9 (Conv1D)            (None, 100454, 128)       268928    
_________________________________________________________________
max_pooling1d_5 (MaxPooling1 (None, 50227, 128)        0         
_________________________________________________________________
conv1d_10 (Conv1D)           (None, 50227, 128)        114816    
_________________________________________________________________
global_max_pooling1d_5 (Glob (None, 128)               0         
_________________________________________________________________
dense_9 (Dense)              (None, 64)                8256      
_________________________________________________________________
dropout_5 (Dropout)          (None, 64)                0         
_________________________________________________________________
dense_10 (Dense)             (None, 1)                 65        
=================================================================
Total params: 11,923,465
Trainable params: 392,065
Non-trainable params: 11,531,400
_________________________________________________________________
None
[['f1score', 0.8435754189944135], ['precision', 0.8342541436464088], ['recall', 0.8531073446327684], ['accuracy', 0.7829457364341085]]
[['f1score', 0.855457227138643], ['precision', 0.8950617283950617], ['recall', 0.8192090395480226], ['accuracy', 0.810077519379845]]
…
