…
160/258 [=================>............] - ETA: 18s
192/258 [=====================>........] - ETA: 12s
224/258 [=========================>....] - ETA: 6s 
256/258 [============================>.] - ETA: 0s
258/258 [==============================] - 49s 189ms/step
[['f1score', 0.8137931034482759], ['precision', 0.686046511627907], ['recall', 1.0], ['accuracy', 0.686046511627907]]
_________________________________________________________________
Layer (type)                 Output Shape              Param #   
=================================================================
embedding_5 (Embedding)      (None, 100454, 300)       11531400  
_________________________________________________________________
conv1d_9 (Conv1D)            (None, 100454, 64)        134464    
_________________________________________________________________
max_pooling1d_5 (MaxPooling1 (None, 50227, 64)         0         
_________________________________________________________________
conv1d_10 (Conv1D)           (None, 50227, 64)         28736     
_________________________________________________________________
global_max_pooling1d_5 (Glob (None, 64)                0         
_________________________________________________________________
dense_9 (Dense)              (None, 64)                4160      
_________________________________________________________________
dropout_5 (Dropout)          (None, 64)                0         
_________________________________________________________________
dense_10 (Dense)             (None, 1)                 65        
=================================================================
Total params: 11,698,825
Trainable params: 167,425
Non-trainable params: 11,531,400
_________________________________________________________________
None
[['f1score', 0.8110599078341014], ['precision', 0.6848249027237354], ['recall', 0.9943502824858758], ['accuracy', 0.6821705426356589]]
[['f1score', 0.8018648018648018], ['precision', 0.6825396825396826], ['recall', 0.9717514124293786], ['accuracy', 0.6705426356589147]]
…
