…
160/258 [=================>............] - ETA: 16s
192/258 [=====================>........] - ETA: 11s
224/258 [=========================>....] - ETA: 5s 
256/258 [============================>.] - ETA: 0s
258/258 [==============================] - 44s 170ms/step
[['f1score', 0.8571428571428572], ['precision', 0.9056603773584906], ['recall', 0.8135593220338984], ['accuracy', 0.813953488372093]]
_________________________________________________________________
Layer (type)                 Output Shape              Param #   
=================================================================
embedding_5 (Embedding)      (None, 100454, 300)       11531400  
_________________________________________________________________
conv1d_9 (Conv1D)            (None, 100454, 128)       268928    
_________________________________________________________________
max_pooling1d_5 (MaxPooling1 (None, 50227, 128)        0         
_________________________________________________________________
conv1d_10 (Conv1D)           (None, 50227, 128)        114816    
_________________________________________________________________
global_max_pooling1d_5 (Glob (None, 128)               0         
_________________________________________________________________
dense_9 (Dense)              (None, 64)                8256      
_________________________________________________________________
dropout_5 (Dropout)          (None, 64)                0         
_________________________________________________________________
dense_10 (Dense)             (None, 1)                 65        
=================================================================
Total params: 11,923,465
Trainable params: 392,065
Non-trainable params: 11,531,400
_________________________________________________________________
None
[['f1score', 0.8319088319088318], ['precision', 0.8390804597701149], ['recall', 0.8248587570621468], ['accuracy', 0.7713178294573644]]
[['f1score', 0.861271676300578], ['precision', 0.8816568047337278], ['recall', 0.8418079096045198], ['accuracy', 0.813953488372093]]
…
