…
160/258 [=================>............] - ETA: 17s
192/258 [=====================>........] - ETA: 11s
224/258 [=========================>....] - ETA: 5s 
256/258 [============================>.] - ETA: 0s
258/258 [==============================] - 45s 174ms/step
[['f1score', 0.7186189216600665], ['precision', 0.7189041578576462], ['recall', 0.7209302325581395], ['accuracy', 0.7209302325581395]]
_________________________________________________________________
Layer (type)                 Output Shape              Param #   
=================================================================
embedding_5 (Embedding)      (None, 100454, 300)       11531400  
_________________________________________________________________
conv1d_9 (Conv1D)            (None, 100454, 128)       268928    
_________________________________________________________________
max_pooling1d_5 (MaxPooling1 (None, 50227, 128)        0         
_________________________________________________________________
conv1d_10 (Conv1D)           (None, 50227, 128)        114816    
_________________________________________________________________
global_max_pooling1d_5 (Glob (None, 128)               0         
_________________________________________________________________
dense_9 (Dense)              (None, 64)                8256      
_________________________________________________________________
dropout_5 (Dropout)          (None, 64)                0         
_________________________________________________________________
dense_10 (Dense)             (None, 3)                 195       
=================================================================
Total params: 11,923,595
Trainable params: 392,195
Non-trainable params: 11,531,400
_________________________________________________________________
None
[['f1score', 0.73306768833212], ['precision', 0.7386571733513088], ['recall', 0.7403100775193798], ['accuracy', 0.7403100775193798]]
[['f1score', 0.5955081115390125], ['precision', 0.6257816846556137], ['recall', 0.6434108527131783], ['accuracy', 0.6434108527131783]]
…
