…
160/258 [=================>............] - ETA: 21s
192/258 [=====================>........] - ETA: 14s
224/258 [=========================>....] - ETA: 7s 
256/258 [============================>.] - ETA: 0s
258/258 [==============================] - 56s 215ms/step
[['f1score', 0.3907751937984496], ['precision', 0.30292650682050354], ['recall', 0.5503875968992248], ['accuracy', 0.5503875968992248]]
_________________________________________________________________
Layer (type)                 Output Shape              Param #   
=================================================================
embedding_5 (Embedding)      (None, 100454, 300)       11531400  
_________________________________________________________________
conv1d_9 (Conv1D)            (None, 100454, 128)       268928    
_________________________________________________________________
max_pooling1d_5 (MaxPooling1 (None, 50227, 128)        0         
_________________________________________________________________
conv1d_10 (Conv1D)           (None, 50227, 128)        114816    
_________________________________________________________________
global_max_pooling1d_5 (Glob (None, 128)               0         
_________________________________________________________________
dense_9 (Dense)              (None, 64)                8256      
_________________________________________________________________
dropout_5 (Dropout)          (None, 64)                0         
_________________________________________________________________
dense_10 (Dense)             (None, 3)                 195       
=================================================================
Total params: 11,923,595
Trainable params: 392,195
Non-trainable params: 11,531,400
_________________________________________________________________
None
[['f1score', 0.3907751937984496], ['precision', 0.30292650682050354], ['recall', 0.5503875968992248], ['accuracy', 0.5503875968992248]]
[['f1score', 0.4114603742510719], ['precision', 0.42740685171292814], ['recall', 0.5426356589147286], ['accuracy', 0.5426356589147286]]
…
