…
160/258 [=================>............] - ETA: 23s
192/258 [=====================>........] - ETA: 15s
224/258 [=========================>....] - ETA: 8s 
256/258 [============================>.] - ETA: 0s
258/258 [==============================] - 61s 238ms/step
[['f1score', 0.7101352907469928], ['precision', 0.7182829204033034], ['recall', 0.7170542635658915], ['accuracy', 0.7170542635658915]]
_________________________________________________________________
Layer (type)                 Output Shape              Param #   
=================================================================
embedding_5 (Embedding)      (None, 100454, 300)       11531400  
_________________________________________________________________
conv1d_9 (Conv1D)            (None, 100454, 128)       268928    
_________________________________________________________________
max_pooling1d_5 (MaxPooling1 (None, 50227, 128)        0         
_________________________________________________________________
conv1d_10 (Conv1D)           (None, 50227, 128)        114816    
_________________________________________________________________
global_max_pooling1d_5 (Glob (None, 128)               0         
_________________________________________________________________
dense_9 (Dense)              (None, 64)                8256      
_________________________________________________________________
dropout_5 (Dropout)          (None, 64)                0         
_________________________________________________________________
dense_10 (Dense)             (None, 3)                 195       
=================================================================
Total params: 11,923,595
Trainable params: 392,195
Non-trainable params: 11,531,400
_________________________________________________________________
None
[['f1score', 0.6861075691663441], ['precision', 0.751311048866], ['recall', 0.7131782945736435], ['accuracy', 0.7131782945736435]]
[['f1score', 0.6567832667397387], ['precision', 0.7427530604067337], ['recall', 0.6627906976744186], ['accuracy', 0.6627906976744186]]
…
