…
128/258 [=============>................] - ETA: 33s
160/258 [=================>............] - ETA: 24s
192/258 [=====================>........] - ETA: 16s
224/258 [=========================>....] - ETA: 8s 
256/258 [============================>.] - ETA: 0s
258/258 [==============================] - 65s 253ms/step
[['f1score', 0.4688146490495164], ['precision', 0.4442765175323315], ['recall', 0.5], ['accuracy', 0.5]]
_________________________________________________________________
Layer (type)                 Output Shape              Param #   
=================================================================
embedding_5 (Embedding)      (None, 100454, 300)       11531400  
_________________________________________________________________
conv1d_9 (Conv1D)            (None, 100454, 128)       268928    
_________________________________________________________________
max_pooling1d_5 (MaxPooling1 (None, 50227, 128)        0         
_________________________________________________________________
conv1d_10 (Conv1D)           (None, 50227, 128)        114816    
_________________________________________________________________
global_max_pooling1d_5 (Glob (None, 128)               0         
_________________________________________________________________
dense_9 (Dense)              (None, 64)                8256      
_________________________________________________________________
dropout_5 (Dropout)          (None, 64)                0         
_________________________________________________________________
dense_10 (Dense)             (None, 3)                 195       
=================================================================
Total params: 11,923,595
Trainable params: 392,195
Non-trainable params: 11,531,400
_________________________________________________________________
None
[['f1score', 0.46637916986754197], ['precision', 0.43124236361114193], ['recall', 0.5193798449612403], ['accuracy', 0.5193798449612403]]
[['f1score', 0.42067488303951994], ['precision', 0.4863910912275593], ['recall', 0.5581395348837209], ['accuracy', 0.5581395348837209]]
…
