…
160/258 [=================>............] - ETA: 55s 
192/258 [=====================>........] - ETA: 36s
224/258 [=========================>....] - ETA: 18s
256/258 [============================>.] - ETA: 1s 
258/258 [==============================] - 154s 599ms/step
[['f1score', 0.8101851851851851], ['precision', 0.6862745098039216], ['recall', 0.9887005649717514], ['accuracy', 0.6821705426356589]]
_________________________________________________________________
Layer (type)                 Output Shape              Param #   
=================================================================
embedding_5 (Embedding)      (None, 100454, 300)       11531400  
_________________________________________________________________
dropout_5 (Dropout)          (None, 100454, 300)       0         
_________________________________________________________________
conv1d_5 (Conv1D)            (None, 100454, 32)        28832     
_________________________________________________________________
activation_5 (Activation)    (None, 100454, 32)        0         
_________________________________________________________________
max_pooling1d_5 (MaxPooling1 (None, 50227, 32)         0         
_________________________________________________________________
lstm_5 (LSTM)                (None, 128)               82432     
_________________________________________________________________
dense_5 (Dense)              (None, 1)                 129       
=================================================================
Total params: 11,642,793
Trainable params: 111,393
Non-trainable params: 11,531,400
_________________________________________________________________
None
[['f1score', 0.8137931034482759], ['precision', 0.686046511627907], ['recall', 1.0], ['accuracy', 0.686046511627907]]
[['f1score', 0.8018648018648018], ['precision', 0.6825396825396826], ['recall', 0.9717514124293786], ['accuracy', 0.6705426356589147]]
…
