…
160/258 [=================>............] - ETA: 53s 
192/258 [=====================>........] - ETA: 36s
224/258 [=========================>....] - ETA: 18s
256/258 [============================>.] - ETA: 1s 
258/258 [==============================] - 152s 591ms/step
[['f1score', 0.8114558472553699], ['precision', 0.7024793388429752], ['recall', 0.96045197740113], ['accuracy', 0.6937984496124031]]
_________________________________________________________________
Layer (type)                 Output Shape              Param #   
=================================================================
embedding_5 (Embedding)      (None, 100454, 300)       11531400  
_________________________________________________________________
dropout_5 (Dropout)          (None, 100454, 300)       0         
_________________________________________________________________
conv1d_5 (Conv1D)            (None, 100454, 32)        28832     
_________________________________________________________________
activation_5 (Activation)    (None, 100454, 32)        0         
_________________________________________________________________
max_pooling1d_5 (MaxPooling1 (None, 50227, 32)         0         
_________________________________________________________________
lstm_5 (LSTM)                (None, 100)               53200     
_________________________________________________________________
dense_5 (Dense)              (None, 1)                 101       
=================================================================
Total params: 11,613,533
Trainable params: 82,133
Non-trainable params: 11,531,400
_________________________________________________________________
None
[['f1score', 0.815668202764977], ['precision', 0.688715953307393], ['recall', 1.0], ['accuracy', 0.689922480620155]]
[['f1score', 0.8111888111888111], ['precision', 0.6904761904761905], ['recall', 0.9830508474576272], ['accuracy', 0.686046511627907]]
…
