…
160/258 [=================>............] - ETA: 49s 
192/258 [=====================>........] - ETA: 33s
224/258 [=========================>....] - ETA: 17s
256/258 [============================>.] - ETA: 1s 
258/258 [==============================] - 141s 547ms/step
[['f1score', 0.3994119824044892], ['precision', 0.618058697553766], ['recall', 0.5542635658914729], ['accuracy', 0.5542635658914729]]
_________________________________________________________________
Layer (type)                 Output Shape              Param #   
=================================================================
embedding_5 (Embedding)      (None, 100454, 300)       11531400  
_________________________________________________________________
dropout_5 (Dropout)          (None, 100454, 300)       0         
_________________________________________________________________
conv1d_5 (Conv1D)            (None, 100454, 32)        28832     
_________________________________________________________________
activation_5 (Activation)    (None, 100454, 32)        0         
_________________________________________________________________
max_pooling1d_5 (MaxPooling1 (None, 50227, 32)         0         
_________________________________________________________________
lstm_5 (LSTM)                (None, 128)               82432     
_________________________________________________________________
dense_5 (Dense)              (None, 3)                 387       
=================================================================
Total params: 11,643,051
Trainable params: 111,651
Non-trainable params: 11,531,400
_________________________________________________________________
None
[['f1score', 0.4155459378885654], ['precision', 0.4050710594315245], ['recall', 0.5310077519379846], ['accuracy', 0.5310077519379846]]
[['f1score', 0.4561540531150983], ['precision', 0.42499715838050417], ['recall', 0.49224806201550386], ['accuracy', 0.49224806201550386]]
…
