…
160/258 [=================>............] - ETA: 57s 
192/258 [=====================>........] - ETA: 38s
224/258 [=========================>....] - ETA: 20s
256/258 [============================>.] - ETA: 1s 
258/258 [==============================] - 162s 628ms/step
[['f1score', 0.39843050453149453], ['precision', 0.4089831281349749], ['recall', 0.5503875968992248], ['accuracy', 0.5503875968992248]]
_________________________________________________________________
Layer (type)                 Output Shape              Param #   
=================================================================
embedding_5 (Embedding)      (None, 100454, 300)       11531400  
_________________________________________________________________
dropout_5 (Dropout)          (None, 100454, 300)       0         
_________________________________________________________________
conv1d_5 (Conv1D)            (None, 100454, 32)        28832     
_________________________________________________________________
activation_5 (Activation)    (None, 100454, 32)        0         
_________________________________________________________________
max_pooling1d_5 (MaxPooling1 (None, 50227, 32)         0         
_________________________________________________________________
lstm_5 (LSTM)                (None, 128)               82432     
_________________________________________________________________
dense_5 (Dense)              (None, 3)                 387       
=================================================================
Total params: 11,643,051
Trainable params: 111,651
Non-trainable params: 11,531,400
_________________________________________________________________
None
[['f1score', 0.4586362505837663], ['precision', 0.42483929071768806], ['recall', 0.5], ['accuracy', 0.5]]
[['f1score', 0.435072600637469], ['precision', 0.4168003207698477], ['recall', 0.46124031007751937], ['accuracy', 0.46124031007751937]]
…
