…
160/258 [=================>............] - ETA: 50s 
192/258 [=====================>........] - ETA: 33s
224/258 [=========================>....] - ETA: 17s
256/258 [============================>.] - ETA: 1s 
258/258 [==============================] - 142s 552ms/step
[['f1score', 0.8111888111888111], ['precision', 0.6904761904761905], ['recall', 0.9830508474576272], ['accuracy', 0.686046511627907]]
_________________________________________________________________
Layer (type)                 Output Shape              Param #   
=================================================================
embedding_5 (Embedding)      (None, 100454, 300)       11531400  
_________________________________________________________________
dropout_5 (Dropout)          (None, 100454, 300)       0         
_________________________________________________________________
conv1d_5 (Conv1D)            (None, 100454, 32)        28832     
_________________________________________________________________
activation_5 (Activation)    (None, 100454, 32)        0         
_________________________________________________________________
max_pooling1d_5 (MaxPooling1 (None, 50227, 32)         0         
_________________________________________________________________
lstm_5 (LSTM)                (None, 100)               53200     
_________________________________________________________________
dense_5 (Dense)              (None, 1)                 101       
=================================================================
Total params: 11,613,533
Trainable params: 82,133
Non-trainable params: 11,531,400
_________________________________________________________________
None
[['f1score', 0.8137931034482759], ['precision', 0.686046511627907], ['recall', 1.0], ['accuracy', 0.686046511627907]]
[['f1score', 0.8130841121495327], ['precision', 0.6932270916334662], ['recall', 0.9830508474576272], ['accuracy', 0.689922480620155]]
…
160/258 [=================>............] - ETA: 54s 
192/258 [=====================>........] - ETA: 36s
224/258 [=========================>....] - ETA: 18s
256/258 [============================>.] - ETA: 1s 
258/258 [==============================] - 153s 591ms/step
[['f1score', 0.8047058823529412], ['precision', 0.6895161290322581], ['recall', 0.9661016949152542], ['accuracy', 0.6782945736434108]]
_________________________________________________________________
Layer (type)                 Output Shape              Param #   
=================================================================
embedding_10 (Embedding)     (None, 100454, 300)       11531400  
_________________________________________________________________
dropout_10 (Dropout)         (None, 100454, 300)       0         
_________________________________________________________________
conv1d_10 (Conv1D)           (None, 100454, 32)        28832     
_________________________________________________________________
activation_10 (Activation)   (None, 100454, 32)        0         
_________________________________________________________________
max_pooling1d_10 (MaxPooling (None, 50227, 32)         0         
_________________________________________________________________
lstm_10 (LSTM)               (None, 128)               82432     
_________________________________________________________________
dense_10 (Dense)             (None, 1)                 129       
=================================================================
Total params: 11,642,793
Trainable params: 111,393
Non-trainable params: 11,531,400
_________________________________________________________________
None
[['f1score', 0.812206572769953], ['precision', 0.6947791164658634], ['recall', 0.9774011299435028], ['accuracy', 0.689922480620155]]
[['f1score', 0.8137931034482759], ['precision', 0.686046511627907], ['recall', 1.0], ['accuracy', 0.686046511627907]]
…
