…
160/258 [=================>............] - ETA: 53s 
192/258 [=====================>........] - ETA: 36s
224/258 [=========================>....] - ETA: 18s
256/258 [============================>.] - ETA: 1s 
258/258 [==============================] - 151s 586ms/step
[['f1score', 0.43139860595400953], ['precision', 0.402239895728992], ['recall', 0.46511627906976744], ['accuracy', 0.46511627906976744]]
_________________________________________________________________
Layer (type)                 Output Shape              Param #   
=================================================================
embedding_5 (Embedding)      (None, 100454, 300)       11531400  
_________________________________________________________________
dropout_5 (Dropout)          (None, 100454, 300)       0         
_________________________________________________________________
conv1d_5 (Conv1D)            (None, 100454, 32)        28832     
_________________________________________________________________
activation_5 (Activation)    (None, 100454, 32)        0         
_________________________________________________________________
max_pooling1d_5 (MaxPooling1 (None, 50227, 32)         0         
_________________________________________________________________
lstm_5 (LSTM)                (None, 100)               53200     
_________________________________________________________________
dense_5 (Dense)              (None, 3)                 303       
=================================================================
Total params: 11,613,735
Trainable params: 82,335
Non-trainable params: 11,531,400
_________________________________________________________________
None
[['f1score', 0.4395461425872875], ['precision', 0.40455011712111694], ['recall', 0.49612403100775193], ['accuracy', 0.49612403100775193]]
[['f1score', 0.3907751937984496], ['precision', 0.30292650682050354], ['recall', 0.5503875968992248], ['accuracy', 0.5503875968992248]]
…
160/258 [=================>............] - ETA: 56s 
192/258 [=====================>........] - ETA: 38s
224/258 [=========================>....] - ETA: 19s
256/258 [============================>.] - ETA: 1s 
258/258 [==============================] - 160s 622ms/step
[['f1score', 0.422801525692118], ['precision', 0.5172572905131045], ['recall', 0.562015503875969], ['accuracy', 0.562015503875969]]
_________________________________________________________________
Layer (type)                 Output Shape              Param #   
=================================================================
embedding_10 (Embedding)     (None, 100454, 300)       11531400  
_________________________________________________________________
dropout_10 (Dropout)         (None, 100454, 300)       0         
_________________________________________________________________
conv1d_10 (Conv1D)           (None, 100454, 32)        28832     
_________________________________________________________________
activation_10 (Activation)   (None, 100454, 32)        0         
_________________________________________________________________
max_pooling1d_10 (MaxPooling (None, 50227, 32)         0         
_________________________________________________________________
lstm_10 (LSTM)               (None, 128)               82432     
_________________________________________________________________
dense_10 (Dense)             (None, 3)                 387       
=================================================================
Total params: 11,643,051
Trainable params: 111,651
Non-trainable params: 11,531,400
_________________________________________________________________
None
[['f1score', 0.386697010594905], ['precision', 0.4168762968914654], ['recall', 0.4108527131782946], ['accuracy', 0.4108527131782946]]
[['f1score', 0.4351900681440987], ['precision', 0.4197402958147391], ['recall', 0.46124031007751937], ['accuracy', 0.46124031007751937]]
…
