…
160/258 [=================>............] - ETA: 48s 
192/258 [=====================>........] - ETA: 32s
224/258 [=========================>....] - ETA: 16s
256/258 [============================>.] - ETA: 0s 
258/258 [==============================] - 136s 527ms/step
[['f1score', 0.3907751937984496], ['precision', 0.30292650682050354], ['recall', 0.5503875968992248], ['accuracy', 0.5503875968992248]]
_________________________________________________________________
Layer (type)                 Output Shape              Param #   
=================================================================
embedding_5 (Embedding)      (None, 100454, 300)       11531400  
_________________________________________________________________
dropout_5 (Dropout)          (None, 100454, 300)       0         
_________________________________________________________________
conv1d_5 (Conv1D)            (None, 100454, 32)        28832     
_________________________________________________________________
activation_5 (Activation)    (None, 100454, 32)        0         
_________________________________________________________________
max_pooling1d_5 (MaxPooling1 (None, 50227, 32)         0         
_________________________________________________________________
lstm_5 (LSTM)                (None, 100)               53200     
_________________________________________________________________
dense_5 (Dense)              (None, 3)                 303       
=================================================================
Total params: 11,613,735
Trainable params: 82,335
Non-trainable params: 11,531,400
_________________________________________________________________
None
[['f1score', 0.4664481317758274], ['precision', 0.4492941469312282], ['recall', 0.5426356589147286], ['accuracy', 0.5426356589147286]]
[['f1score', 0.47315970113129335], ['precision', 0.4553740291389144], ['recall', 0.5038759689922481], ['accuracy', 0.5038759689922481]]
…
160/258 [=================>............] - ETA: 52s 
192/258 [=====================>........] - ETA: 35s
224/258 [=========================>....] - ETA: 18s
256/258 [============================>.] - ETA: 1s 
258/258 [==============================] - 149s 576ms/step
[['f1score', 0.40572083298981276], ['precision', 0.38970735072526913], ['recall', 0.5310077519379846], ['accuracy', 0.5310077519379846]]
_________________________________________________________________
Layer (type)                 Output Shape              Param #   
=================================================================
embedding_10 (Embedding)     (None, 100454, 300)       11531400  
_________________________________________________________________
dropout_10 (Dropout)         (None, 100454, 300)       0         
_________________________________________________________________
conv1d_10 (Conv1D)           (None, 100454, 32)        28832     
_________________________________________________________________
activation_10 (Activation)   (None, 100454, 32)        0         
_________________________________________________________________
max_pooling1d_10 (MaxPooling (None, 50227, 32)         0         
_________________________________________________________________
lstm_10 (LSTM)               (None, 128)               82432     
_________________________________________________________________
dense_10 (Dense)             (None, 3)                 387       
=================================================================
Total params: 11,643,051
Trainable params: 111,651
Non-trainable params: 11,531,400
_________________________________________________________________
None
[['f1score', 0.3851151432546781], ['precision', 0.32878219554888716], ['recall', 0.5232558139534884], ['accuracy', 0.5232558139534884]]
[['f1score', 0.39401653482424304], ['precision', 0.3681703558419725], ['recall', 0.5310077519379846], ['accuracy', 0.5310077519379846]]
…
