…
160/258 [=================>............] - ETA: 45s 
192/258 [=====================>........] - ETA: 30s
224/258 [=========================>....] - ETA: 15s
256/258 [============================>.] - ETA: 0s 
258/258 [==============================] - 130s 503ms/step
[['f1score', 0.8137931034482759], ['precision', 0.686046511627907], ['recall', 1.0], ['accuracy', 0.686046511627907]]
_________________________________________________________________
Layer (type)                 Output Shape              Param #   
=================================================================
embedding_5 (Embedding)      (None, 100454, 300)       11531400  
_________________________________________________________________
dropout_5 (Dropout)          (None, 100454, 300)       0         
_________________________________________________________________
conv1d_5 (Conv1D)            (None, 100454, 32)        28832     
_________________________________________________________________
activation_5 (Activation)    (None, 100454, 32)        0         
_________________________________________________________________
max_pooling1d_5 (MaxPooling1 (None, 50227, 32)         0         
_________________________________________________________________
lstm_5 (LSTM)                (None, 100)               53200     
_________________________________________________________________
dense_5 (Dense)              (None, 1)                 101       
=================================================================
Total params: 11,613,533
Trainable params: 82,133
Non-trainable params: 11,531,400
_________________________________________________________________
None
[['f1score', 0.8137931034482759], ['precision', 0.686046511627907], ['recall', 1.0], ['accuracy', 0.686046511627907]]
[['f1score', 0.8137931034482759], ['precision', 0.686046511627907], ['recall', 1.0], ['accuracy', 0.686046511627907]]
…
160/258 [=================>............] - ETA: 50s 
192/258 [=====================>........] - ETA: 33s
224/258 [=========================>....] - ETA: 17s
256/258 [============================>.] - ETA: 1s 
258/258 [==============================] - 142s 550ms/step
[['f1score', 0.8137931034482759], ['precision', 0.686046511627907], ['recall', 1.0], ['accuracy', 0.686046511627907]]
_________________________________________________________________
Layer (type)                 Output Shape              Param #   
=================================================================
embedding_10 (Embedding)     (None, 100454, 300)       11531400  
_________________________________________________________________
dropout_10 (Dropout)         (None, 100454, 300)       0         
_________________________________________________________________
conv1d_10 (Conv1D)           (None, 100454, 32)        28832     
_________________________________________________________________
activation_10 (Activation)   (None, 100454, 32)        0         
_________________________________________________________________
max_pooling1d_10 (MaxPooling (None, 50227, 32)         0         
_________________________________________________________________
lstm_10 (LSTM)               (None, 128)               82432     
_________________________________________________________________
dense_10 (Dense)             (None, 1)                 129       
=================================================================
Total params: 11,642,793
Trainable params: 111,393
Non-trainable params: 11,531,400
_________________________________________________________________
None
[['f1score', 0.8137931034482759], ['precision', 0.686046511627907], ['recall', 1.0], ['accuracy', 0.686046511627907]]
[['f1score', 0.8137931034482759], ['precision', 0.686046511627907], ['recall', 1.0], ['accuracy', 0.686046511627907]]
…
